pygame 1.9.4
Hello from the pygame community. https://www.pygame.org/contribute.html
4
(1, 8, 8)
tf
_________________________________________________________________
Layer (type)                 Output Shape              Param #   
=================================================================
flatten_1 (Flatten)          (None, 64)                0         
_________________________________________________________________
dense_1 (Dense)              (None, 256)               16640     
_________________________________________________________________
activation_1 (Activation)    (None, 256)               0         
_________________________________________________________________
dense_2 (Dense)              (None, 128)               32896     
_________________________________________________________________
activation_2 (Activation)    (None, 128)               0         
_________________________________________________________________
dense_3 (Dense)              (None, 4)                 516       
_________________________________________________________________
activation_3 (Activation)    (None, 4)                 0         
=================================================================
Total params: 50,052
Trainable params: 50,052
Non-trainable params: 0
_________________________________________________________________
None
Testing for 4 episodes ...
❌❌❌❌❌❌❌❌
❌🏆😎🏆🏆🏆🏆❌
❌🏆🏆🏆🏆🏆🏆❌
❌🏆🏆🏆🏆🏆🏆❌
❌🏆🏆🏆🏆🏆🏆❌
❌🏆🏆🏆🏆🏆🏆❌
❌🏆🏆🏆🏆🏆🏆❌
❌❌❌❌❌❌❌❌
❌❌❌❌❌❌❌❌
❌🏆👣😎🏆🏆🏆❌
❌🏆🏆🏆🏆🏆🏆❌
❌🏆🏆🏆🏆🏆🏆❌
❌🏆🏆🏆🏆🏆🏆❌
❌🏆🏆🏆🏆🏆🏆❌
❌🏆🏆🏆🏆🏆🏆❌
❌❌❌❌❌❌❌❌
❌❌❌❌❌❌❌❌
❌🏆👣👣😎🏆🏆❌
…
